Assignment_2/lstm1.pt (torch, 2259 bytes, 4 tensors)

weight_ih_l0 f4 [24, 1]
0	0x3e58769c	0.21138996
1	0x3e3fa4a0	0.18715143
2	0x3d397fd0	0.045287907
3	0x3e0aa948	0.13541138
4	0x3e91398a	0.2836421
5	0x3e700428	0.23439085
6	0xbeabf179	-0.33582667
7	0xbd340cf8	-0.04395768
8	0x3d984f70	0.074370265
9	0xbece743a	-0.4032305
10	0x3e4c2fd4	0.1994012
11	0x3c975790	0.01847437
12	0x3c985500	0.018595219
13	0xbe0607a4	-0.13088852
14	0x3df8af60	0.12142825
15	0x3eb139e0	0.34614468
16	0xbe05187a	-0.12997618
17	0x3e5a9650	0.21346402
18	0x3dad95a8	0.0847581
19	0x3e737edc	0.23778862
20	0x3e14ad14	0.14519149
21	0x3d7b9820	0.061424375
22	0xbd8ca6bc	-0.068677396
23	0x3e553648	0.20821488

weight_hh_l0 f4 [24, 6]
0	0x3d0bed48	0.034161836
1	0x3e5dedc8	0.21672738
2	0x3db3a97c	0.08772561
3	0xbe0d2a62	-0.13785699
4	0x3eab9a6c	0.33516252
5	0x3e525970	0.2054193
6	0xbe8dc0e6	-0.27686232
7	0x3e37d240	0.17951298
8	0xbd25f220	-0.04051411
9	0x3e6b0f1c	0.22954983
10	0x3e321684	0.17391402
11	0xbd3f2db0	-0.04667443
12	0x3ea5df7e	0.32397074
13	0x3e97a486	0.2961771
14	0x3cfc52d0	0.030801207
15	0xbea6200e	-0.3244633
16	0x3d820294	0.06348148
17	0x3e18a298	0.14905775
18	0x3eb90e2e	0.3614363
19	0xbcb2b3b0	-0.021814197
20	0xbd450920	-0.048104405
21	0x3e2f13d4	0.17097408
22	0x3da2a6fc	0.07942006
23	0x3e744cf8	0.23857486
24	0xbe38e3bc	-0.18055624
25	0xbe8fb940	-0.28071022
26	0xbeb5cfc7	-0.35510084
27	0x3de4c1a8	0.111697495
28	0xbcaa92c0	-0.020821929
29	0x3e3751ec	0.17902344
30	0xbdece7bc	-0.11567637
31	0xbe717277	-0.23578821
32	0x3e8f01c6	0.2793104
33	0xbe7d507c	-0.24737734
34	0xbe34e026	-0.17663631
35	0xbe5f2813	-0.21792631
36	0xbe7b5edb	-0.24547903
37	0x3e259514	0.1617015
38	0x3df348f8	0.11879152
39	0x3ec530f6	0.38513917
40	0xbca58d90	-0.020209104
41	0xbc975ac0	-0.01847589
42	0xbece9ebc	-0.4035548
43	0xbebf765b	-0.37394986
44	0xbdf90738	-0.1215958
45	0xbe77abf2	-0.24186686
46	0x3e91ecca	0.28500968
47	0x3ec1de20	0.3786478
48	0x3e7e1e70	0.24816298
49	0x3e9b540c	0.3033756
50	0x3ec965aa	0.39335376
51	0x3e939352	0.28823334
52	0xbd990a64	-0.07472685
53	0x3e9ab2ec	0.30214632
54	0x3ea6b77e	0.32561868
55	0xbe78f9f5	-0.24314101
56	0xbd307370	-0.04307884
57	0xbe8a5d62	-0.2702437
58	0xbeb21b61	-0.34786513
59	0x3eceec32	0.40414578
60	0x3e1b2bd8	0.15153444
61	0x3eb67430	0.3563552
62	0xbeb987cd	-0.3623642
63	0x3eab2fe6	0.3343498
64	0xbdbdc960	-0.09266925
65	0x3e9d5548	0.30729127
66	0x3e24d9d4	0.1609872
67	0x3e44896c	0.19193047
68	0x3dd37040	0.10324144
69	0x3ea05cc4	0.31320775
70	0xbece1966	-0.40253752
71	0x3e500548	0.20314515
72	0xbe585651	-0.21126677
73	0x3ebfd6a4	0.37468445
74	0xbe15b092	-0.14618137
75	0x3e9fc8fc	0.31208026
76	0xbe947f10	-0.2900319
77	0x3e979c68	0.29611516
78	0x3e4f8fcc	0.20269698
79	0x3ea4bb5a	0.32174188
80	0x3e4f7720	0.20260286
81	0xbd3ab480	-0.045582294
82	0xbe66133f	-0.2246828
83	0x3e0a6bd8	0.13517702
84	0x3d8a76f8	0.06760973
85	0xbe8178da	-0.25287515
86	0xbd6f44d0	-0.058415234
87	0xbc936200	-0.017991066
88	0xbeccef9f	-0.40026566
89	0x3d17b570	0.037038267
90	0xbe88bfe4	-0.267089
91	0x3eb94294	0.36183608
92	0x3d143fd8	0.0361937
93	0x3dae9768	0.08524972
94	0xbeba2100	-0.36353302
95	0x3e3bedfc	0.18352503
96	0xbec22b4e	-0.37923664
97	0x3e77c1b0	0.2419498
98	0x3e410b2c	0.18851918
99	0xbea6b699	-0.32561186
100	0x3e347c84	0.17625624
101	0x3e556b7c	0.20841783
102	0xbe62fcf4	-0.22166806
103	0xbe95a808	-0.2922976
104	0xbd028c38	-0.031872004
105	0x3e20a4b0	0.15687823
106	0xbe563da6	-0.20921955
107	0xbeab3740	-0.3344059
108	0xbea9fc23	-0.33200178
109	0x3e3aa0b8	0.18225372
110	0x3e1d431c	0.15357631
111	0xbe9e5e78	-0.3093145
112	0xbe97166c	-0.29509294
113	0x3e8b823c	0.27247798
114	0x3e8f7586	0.2801935
115	0x3dadbef0	0.08483684
116	0xbe9a1dc4	-0.30100834
117	0x3e285b0c	0.16440982
118	0x3dc35088	0.095368445
119	0xbe5fd060	-0.21856833
120	0xbd3e0800	-0.04639435
121	0x3eab5a70	0.33467436
122	0xbe94fd41	-0.29099467
123	0xbecafa53	-0.39644107
124	0x3e8fa42e	0.28054947
125	0xbed104f9	-0.40824106
126	0xbdbc9940	-0.092089176
127	0xbd9d7784	-0.076888114
128	0x3e85cd18	0.26133037
129	0xbe539de3	-0.20665698
130	0xbe20d24c	-0.15705222
131	0xbe01aed4	-0.12664348
132	0xbbe8fb80	-0.0071100593
133	0xbe9f636b	-0.31130537
134	0x3d0c8b08	0.034312278
135	0x3ebbcade	0.36678213
136	0x3e960cc2	0.29306608
137	0x3e9677d0	0.29388285
138	0xbd844b14	-0.064596325
139	0x3d39a518	0.04532346
140	0xbe157a92	-0.14597538
141	0xbe6acaff	-0.22929
142	0x3ece8fce	0.4034409
143	0x3e9fca10	0.3120885

bias_ih_l0 f4 [24]
0	0x3e519650	0.20467496
1	0x3d422428	0.047397763
2	0x3ec3f04c	0.3826927
3	0x3e416528	0.18886244
4	0xbe8776c6	-0.26457804
5	0x3e8c85ce	0.27445835
6	0xbecd6cc8	-0.40122056
7	0xbdbb03b8	-0.09131569
8	0xbdd15194	-0.10220638
9	0x3d2f3838	0.042778224
10	0x3d8fdaf4	0.07024184
11	0x3ec6e57e	0.38846964
12	0xbd94bf64	-0.07263067
13	0xbe31c322	-0.17359594
14	0x3ecd4ba2	0.40096766
15	0xbe40ba77	-0.1882113
16	0x3ec8ad6c	0.3919481
17	0x3d20d658	0.039266914
18	0xbe27c3d9	-0.16383304
19	0xbe3128b0	-0.17300677
20	0xbe87c222	-0.265153
21	0xb95ae000	-0.00020873547
22	0xbe074d16	-0.13213
23	0x3b272300	0.002550304

bias_hh_l0 f4 [24]
0	0x3e62251c	0.22084469
1	0x3ebe5d20	0.37180424
2	0x3dbc00c0	0.091798306
3	0xbd2814b8	-0.041035384
4	0x3e8ab9c4	0.27094853
5	0x3ea02636	0.31279153
6	0xbcb20820	-0.02173239
7	0x3eb84a72	0.35994297
8	0x3c0f9fa0	0.008766085
9	0x3eca1cd8	0.3947513
10	0xbec6ef15	-0.3885428
11	0xbe3933a0	-0.180861
12	0xbe83cc06	-0.25741595
13	0x3e40eb28	0.18839705
14	0x3e826db4	0.25474322
15	0xbe980284	-0.2968942
16	0x3e5b3874	0.21408254
17	0xbd3a2730	-0.04544753
18	0x3e598278	0.21241176
19	0xbd82cdac	-0.06386885
20	0x3e641f6c	0.22277611
21	0xbe8672a2	-0.26259333
22	0x3d951970	0.072802424
23	0xbec8e885	-0.39239898
